tools/hello_world.tflite (tflite, 2512 bytes, 3 tensors)

sequential_1/dense_2/MatMul/ReadVariableOp/transpose i1 [16, 1] scale=0.0042242804 zero_point=0
0	0x73	0.48579225
1	0x1c	0.11827985
2	0x11	0.071812764
3	0xe1	-0.13095269
4	0x0c	0.050691366
5	0x81	-0.5364836
6	0xa5	-0.38440952
7	0x43	0.28302678
8	0xfe	-0.008448561
9	0xd5	-0.18164405
10	0xd5	-0.18164405
11	0xb2	-0.32949388
12	0x60	0.40553093
13	0x77	0.50268936
14	0x19	0.10560701
15	0xdf	-0.13940126

sequential_1/dense_3/MatMul/ReadVariableOp/transpose i1 [16, 16] scale=0.012784697 zero_point=0
0	0xee	-0.23012455
1	0xfc	-0.05113879
2	0x00	0.0
3	0xec	-0.25569394
4	0x05	0.063923486
5	0x16	0.28126335
6	0xef	-0.21733984
7	0xec	-0.25569394
8	0xe6	-0.3324021
9	0xf8	-0.10227758
10	0x03	0.03835409
11	0x01	0.012784697
12	0x00	0.0
13	0xfa	-0.07670818
14	0xf8	-0.10227758
15	0xf5	-0.14063168
16	0xda	-0.4858185
17	0xeb	-0.26847863
18	0x27	0.4986032
19	0x14	0.25569394
20	0xef	-0.21733984
21	0xde	-0.4346797
22	0xe2	-0.38354093
23	0xda	-0.4858185
24	0xf0	-0.20455515
25	0xdf	-0.421895
26	0x32	0.63923484
27	0x06	0.07670818
28	0x01	0.012784697
29	0xe6	-0.3324021
30	0xee	-0.23012455
31	0xf9	-0.08949288
32	0x00	0.0
33	0x16	0.28126335
34	0x07	0.08949288
35	0xe0	-0.4091103
36	0xfe	-0.025569394
37	0xff	-0.012784697
38	0xe9	-0.29404804
39	0x05	0.063923486
40	0xe7	-0.31961742
41	0xef	-0.21733984
42	0x81	-1.6236565
43	0x1b	0.34518683
44	0x18	0.30683273
45	0xea	-0.28126335
46	0xca	-0.69037366
47	0x01	0.012784697
48	0x0f	0.19177046
49	0x00	0.0
50	0xdb	-0.4730338
51	0xf7	-0.115062274
52	0x0e	0.17898576
53	0xec	-0.25569394
54	0x12	0.23012455
55	0x1e	0.38354093
56	0x04	0.05113879
57	0x13	0.24290925
58	0xb2	-0.9972064
59	0xe7	-0.31961742
60	0xfd	-0.03835409
61	0x06	0.07670818
62	0xbb	-0.8821441
63	0xe0	-0.4091103
64	0x0c	0.15341637
65	0xec	-0.25569394
66	0xf0	-0.20455515
67	0xdf	-0.421895
68	0xeb	-0.26847863
69	0xf7	-0.115062274
70	0x05	0.063923486
71	0x26	0.4858185
72	0x19	0.31961742
73	0xe4	-0.35797152
74	0x70	1.4318861
75	0x1a	0.3324021
76	0xea	-0.28126335
77	0x1e	0.38354093
78	0x34	0.6648042
79	0xdf	-0.421895
80	0x19	0.31961742
81	0xf3	-0.16620106
82	0xf1	-0.19177046
83	0x19	0.31961742
84	0x0e	0.17898576
85	0x03	0.03835409
86	0x1b	0.34518683
87	0xe1	-0.39632562
88	0xde	-0.4346797
89	0x13	0.24290925
90	0xf6	-0.12784697
91	0x19	0.31961742
92	0xff	-0.012784697
93	0xf6	-0.12784697
94	0x1a	0.3324021
95	0x17	0.29404804
96	0xf1	-0.19177046
97	0x1c	0.35797152
98	0xdb	-0.4730338
99	0x1a	0.3324021
100	0x1a	0.3324021
101	0x20	0.4091103
102	0xe6	-0.3324021
103	0x19	0.31961742
104	0xf5	-0.14063168
105	0xff	-0.012784697
106	0x97	-1.3423932
107	0x0b	0.14063168
108	0x00	0.0
109	0x00	0.0
110	0xce	-0.63923484
111	0xdf	-0.421895
112	0x0d	0.16620106
113	0xf7	-0.115062274
114	0x15	0.26847863
115	0xe4	-0.35797152
116	0xed	-0.24290925
117	0xfc	-0.05113879
118	0x0d	0.16620106
119	0xe9	-0.29404804
120	0xfb	-0.063923486
121	0xec	-0.25569394
122	0x5c	1.1761922
123	0xfc	-0.05113879
124	0x1d	0.3707562
125	0x02	0.025569394
126	0x58	1.1250534
127	0xe3	-0.3707562
128	0xe0	-0.4091103
129	0xf4	-0.15341637
130	0x15	0.26847863
131	0xec	-0.25569394
132	0xf9	-0.08949288
133	0x00	0.0
134	0x13	0.24290925
135	0x05	0.063923486
136	0xec	-0.25569394
137	0x0c	0.15341637
138	0x1c	0.35797152
139	0x14	0.25569394
140	0x0c	0.15341637
141	0xe9	-0.29404804
142	0x0a	0.12784697
143	0xf4	-0.15341637
144	0x18	0.30683273
145	0x00	0.0
146	0xd7	-0.5241726
147	0x05	0.063923486
148	0x27	0.4986032
149	0x02	0.025569394
150	0x15	0.26847863
151	0xea	-0.28126335
152	0xea	-0.28126335
153	0x02	0.025569394
154	0x9b	-1.2912544
155	0x00	0.0
156	0x0c	0.15341637
157	0xfa	-0.07670818
158	0xe9	-0.29404804
159	0xea	-0.28126335
160	0xfe	-0.025569394
161	0x01	0.012784697
162	0x14	0.25569394
163	0xfd	-0.03835409
164	0x0b	0.14063168
165	0x02	0.025569394
166	0xf0	-0.20455515
167	0xef	-0.21733984
168	0x06	0.07670818
169	0xee	-0.23012455
170	0x01	0.012784697
171	0x0d	0.16620106
172	0x06	0.07670818
173	0xe7	-0.31961742
174	0xf7	-0.115062274
175	0x11	0.21733984
176	0xf5	-0.14063168
177	0x0a	0.12784697
178	0xf9	-0.08949288
179	0xf1	-0.19177046
180	0x23	0.4474644
181	0xff	-0.012784697
182	0x0d	0.16620106
183	0xf2	-0.17898576
184	0xec	-0.25569394
185	0x11	0.21733984
186	0x26	0.4858185
187	0x1d	0.3707562
188	0xf2	-0.17898576
189	0xea	-0.28126335
190	0x28	0.5113879
191	0x18	0.30683273
192	0xe0	-0.4091103
193	0xfb	-0.063923486
194	0xf3	-0.16620106
195	0xf4	-0.15341637
196	0x05	0.063923486
197	0x1c	0.35797152
198	0x1d	0.3707562
199	0xfb	-0.063923486
200	0xfd	-0.03835409
201	0x1e	0.38354093
202	0xfc	-0.05113879
203	0x11	0.21733984
204	0xe8	-0.30683273
205	0x06	0.07670818
206	0x09	0.115062274
207	0x03	0.03835409
208	0x12	0.23012455
209	0xf2	-0.17898576
210	0x35	0.67758894
211	0xfb	-0.063923486
212	0xdd	-0.4474644
213	0x1b	0.34518683
214	0xf9	-0.08949288
215	0xef	-0.21733984
216	0xf3	-0.16620106
217	0xe7	-0.31961742
218	0x6f	1.4191014
219	0x0c	0.15341637
220	0x1d	0.3707562
221	0x00	0.0
222	0x43	0.8565747
223	0xfd	-0.03835409
224	0x0d	0.16620106
225	0xf1	-0.19177046
226	0x0a	0.12784697
227	0x19	0.31961742
228	0x1a	0.3324021
229	0xfa	-0.07670818
230	0xe0	-0.4091103
231	0x18	0.30683273
232	0x1e	0.38354093
233	0x13	0.24290925
234	0x37	0.7031583
235	0x1c	0.35797152
236	0x12	0.23012455
237	0xec	-0.25569394
238	0x3a	0.7415124
239	0x0c	0.15341637
240	0xb6	-0.9460676
241	0xcb	-0.67758894
242	0xe6	-0.3324021
243	0x13	0.24290925
244	0xf7	-0.115062274
245	0xeb	-0.26847863
246	0xf1	-0.19177046
247	0x05	0.063923486
248	0x1b	0.34518683
249	0xfa	-0.07670818
250	0x19	0.31961742
251	0xe5	-0.34518683
252	0xec	-0.25569394
253	0xcf	-0.6264502
254	0x0c	0.15341637
255	0xf4	-0.15341637

sequential_1/dense_4/MatMul/ReadVariableOp/transpose i1 [1, 16] scale=0.008496934 zero_point=0
0	0x21	0.28039882
1	0xa2	-0.7987118
2	0x8c	-0.9856443
3	0xc9	-0.46733135
4	0x5f	0.8072087
5	0x1d	0.24641107
6	0xce	-0.42484668
7	0x41	0.5523007
8	0x9f	-0.82420254
9	0xcd	-0.43334362
10	0x20	0.27190188
11	0xb1	-0.67125773
12	0xdf	-0.28039882
13	0x53	0.7052455
14	0x2f	0.3993559
15	0x81	-1.0791106
